models/mnist.onnx (onnx, 884125 bytes, 8 tensors)

layer3.0.weight f4 [64, 3136]
000000 9f a3 0a 3e c8 6c 56 3e d3 21 4c be ff d7 96 be
       0.13538979 0.20939934 -0.19934778 -0.29461667
000010 16 ca 5b be 64 8c f3 3b 77 ac e0 3d 92 ed 51 bd
       -0.21463808 0.0074325074 0.10970395 -0.051251955
000020 e3 24 75 3e 99 98 62 3d 44 0c 6f 3e 4f b2 c5 3d
       0.23939852 0.05532131 0.23344523 0.0965315
000030 a4 06 20 be 5d ae 7b bc 5e d7 be 3c d6 42 b6 3d
       -0.15627533 -0.015361396 0.023296054 0.08899467
000040 8c 7c 0c 3c 2b 71 26 3e 70 76 64 be c3 a4 58 3e
       0.008574616 0.16254108 -0.22310805 0.21156602
000050 9f 0b 20 3e 0d 9d c2 bc 7d 5e 64 3e 45 d4 e3 3e
       0.15629433 -0.023756528 0.2230167 0.44497886
000060 5c de 55 3d b7 b2 20 3e ab b1 54 3d 1d dd 84 3b
       0.05221401 0.15693174 0.05192725 0.004054679
000070 27 31 81 bd 77 44 9c 3e 80 68 69 3e 72 64 95 be
       -0.06308203 0.30520985 0.2279377 -0.29178196
000080 cf e2 83 3c c1 6f 93 3e d0 0a dc bd 89 5c 29 be
       0.016099362 0.287962 -0.1074425 -0.16539206
000090 64 80 9d 3e de 5c 18 be 9a 9d 8a be ff 76 06 3d
       0.30762017 -0.14879176 -0.27073365 0.032828327
0000a0 c5 1e 36 3e e2 41 3b bd 62 0b 60 3e d0 c9 90 3d
       0.17785175 -0.045717128 0.21879342 0.07069743
0000b0 24 0f 8f be 79 fb 5d 3e 77 78 7f 3e d8 82 65 3e
       -0.2794124 0.2167796 0.24948297 0.22413194
0000c0 a1 2f b2 bd f2 01 3c be 63 c0 5c bc 70 16 95 be
       -0.08700491 -0.18360117 -0.013473603 -0.2911868
0000d0 20 3a 86 be 39 c2 4e be 2d ee ca 3d bf 85 06 be
       -0.2621622 -0.20191278 0.0990871 -0.13136958
0000e0 cf bf 0a be 34 be 48 be 1c e3 96 be b7 c8 99 be
       -0.13549732 -0.19603807 -0.29470146 -0.30035946
0000f0 8d 99 20 be 54 eb 88 3d c4 e1 69 bd 2c 49 b7 bd
       -0.15683575 0.0668551 -0.057100073 -0.08949503
000100 5e 17 78 bd cb ca 80 be aa 9c 82 3e 8f 61 6d 3e
       -0.06056916 -0.2515472 0.2551015 0.23181747
000110 4d 1f da 3e 0b 9b 41 be 77 13 80 be 17 8e 32 3d
       0.42602006 -0.189068 -0.2501485 0.04359254
000120 f0 6d fd 3d c3 cb e4 3e 2d 8b a5 3d c5 22 07 3e
       0.123744845 0.44686708 0.08083186 0.13196857
000130 36 ae 56 3d 3a 0f b0 be 3e 4c 26 3e 94 30 86 3e
       0.052412234 -0.34386617 0.16240022 0.26208937
000140 b4 18 a3 3d 59 92 6c 3e 6e f3 b6 3e 25 e5 30 be
       0.07963696 0.23102702 0.35732597 -0.17274912
000150 13 bc 95 bc 76 f5 13 3e 05 30 9d 3d 17 8b a0 3d
       -0.018278157 0.14449105 0.076751746 0.07839029
000160 14 15 f9 3d 68 a3 50 3e f3 8b 0c be f8 2d df 3c
       0.121622235 0.20374835 -0.13725261 0.0272436
000170 a2 6c 76 bd 84 47 c9 bc 25 44 4f bd 45 30 c7 bd
       -0.060162194 -0.024570234 -0.050602097 -0.097260036
000180 f8 f6 6b 3e 85 38 74 3d 87 78 3d 3e 56 27 df bc
       0.2304343 0.059624214 0.18503009 -0.027240437
000190 7e af e1 bd 5c 98 47 bd 57 5c b8 bd 89 b5 17 3e
       -0.110198006 -0.048729286 -0.090019874 0.14815344
0001a0 61 3a c8 3c 16 0e 3e bd 68 86 c3 be a1 1e 9e be
       0.0244419 -0.046400152 -0.3818848 -0.30882743
0001b0 bd 4e c6 3d f7 20 db 3d c0 54 5c 3e 37 5b 58 bc
       0.09682987 0.10699647 0.21516705 -0.013205341
0001c0 2e 30 8d 3d 41 2e b3 be 57 19 ff bd be 31 0f 3f
       0.06893955 -0.34996226 -0.12456005 0.55935276
0001d0 f8 76 a3 3d 36 83 79 3e 71 31 bd 3e ef f2 68 be
       0.07981676 0.24366459 0.36951783 -0.22748922
0001e0 60 b2 66 3e f2 45 bd 3e 9b ab a5 be 24 70 89 be
       0.22528982 0.36967427 -0.32357487 -0.2684337
0001f0 81 b1 9d bb 07 da 8f 3c df 52 19 3b 0e 43 c5 bc
       -0.00481242 0.017560018 0.0023395342 -0.024079826
000200 a7 ba f9 bc a6 c8 6c be ca d4 62 bc 6a 07 c9 3d
       -0.03048451 -0.23123416 -0.013844678 0.09815867
000210 9f 5b db bd 99 4d f4 3c 38 c4 21 3e ef f7 09 3e
       -0.10710835 0.029822158 0.15797508 0.13473485
000220 d3 5b 8c 3c 19 e1 10 be 77 90 05 3d 9f 01 32 be
       0.017133629 -0.14148368 0.032608476 -0.17383431
000230 18 4b d6 bd cf 17 24 3e ce 6d 98 3d 09 06 a7 3d
       -0.10463542 0.16024707 0.074428186 0.08155448
000240 39 ea 81 bd fb 8c 39 3e 44 a6 1d bc 34 94 3d be
       -0.063435026 0.18120186 -0.00962216 -0.18513566
000250 e0 71 be bc df fa 10 be b3 17 a0 be 5b b1 0a bf
       -0.02324766 -0.141582 -0.3126808 -0.5417687
000260 70 c5 92 3c 9f b2 73 bd e6 db 3c be c6 21 b3 bd
       0.017916411 -0.05949652 -0.1844326 -0.08746676
000270 cc ea 91 be 95 b1 64 be fa ad b1 be 48 43 20 3e
       -0.28499448 -0.22333367 -0.34703046 0.15650666
000280 1a 5b c8 bd 46 2d 24 be 70 df 52 be fe fc de be
       -0.09783001 -0.16032895 -0.20593047 -0.43552393
000290 02 e3 da bd da 3e 2b bd 9e b1 26 3e 11 50 32 3e
       -0.106878296 -0.041807987 0.16278693 0.17413355
0002a0 47 50 40 be 47 44 55 3d 5e bf a6 be 1f be 08 3e
       -0.18780623 0.052067067 -0.32567877 0.13353775
0002b0 74 68 38 3e c9 8a 6c 3e df 52 9b 3e 55 ad 21 be
       0.18008596 0.23099817 0.30336663 -0.15788777
0002c0 2e 74 e6 bd 81 7d f8 bc ad 82 19 3e 3b 67 0e 3d
       -0.11252628 -0.030333282 0.14991255 0.034766417
0002d0 2d 24 7c 3e 8a 51 51 3d 2f c3 08 be da 8b 49 be
       0.24623175 0.051103152 -0.13355707 -0.19682255
0002e0 47 ec d8 3d 2f 04 b0 3d f0 54 f4 bd 30 83 ff 3d
       0.10591941 0.08594548 -0.11930263 0.12476194
0002f0 87 54 53 be a1 28 b3 3d 0b cc fd 3d ea 6f 80 3e
       -0.20637713 0.08747984 0.12392434 0.25085384
000300 0d 7e b2 bd d2 6a 2b be 4c c0 a0 3e a6 a4 cb 3c
       -0.087154485 -0.16739967 0.3139671 0.024858784
000310 3b 3d 41 3c 7e 6e 16 3e af af 1d 3d 30 8a d1 bd
       0.011794384 0.14690587 0.038497623 -0.10231435
000320 51 ad 83 bd 31 89 f1 bd b3 27 d1 3d 0d df 2a bd
       -0.06429542 -0.11793745 0.1021265 -0.041716624
000330 fe 46 26 3e 34 8e 5d 3e 3d 22 9e bc 53 95 17 3e
       0.16238019 0.21636277 -0.019303435 0.14803056
000340 06 3c ed bc 78 33 47 be 60 87 bd 3c 3c 57 aa 3e
       -0.028959285 -0.19453228 0.02313584 0.3326968
000350 1c 0c 8e 3c 18 9d 30 3e c1 78 50 be aa 73 60 bc
       0.017339759 0.17247427 -0.20358564 -0.013699451
000360 ca 5e 3e bd d3 c6 2a bc ce 55 d3 bc f9 a2 d0 3e
       -0.046477117 -0.01042338 -0.02579775 0.40749338
000370 20 b8 3c 3e b1 71 98 3e 0c 67 a5 3e 0a d1 6b bd
       0.18429613 0.2977424 0.3230518 -0.057572402
000380 03 79 24 be ba 5a a0 3e ad 14 b6 3e bb 27 6e be
       -0.16061787 0.3131922 0.3556265 -0.23257343
000390 e6 66 ef 3d 70 f7 3e 3e 27 25 0c be 7e 7c 03 3d
       0.11689548 0.18649077 -0.13686047 0.032101147
0003a0 57 d4 b6 3d 7c 77 88 be 6b c8 25 be 01 b7 2e 3c
       0.08927219 -0.2665366 -0.16189735 0.010663749
0003b0 d4 bc c5 3d 7d 52 19 3e 75 4f 33 be 04 bc 95 3d
       0.09655157 0.14972873 -0.17510779 0.07311252
0003c0 4a 77 30 be 38 f1 72 be b9 08 b0 3d f8 eb 27 be
       -0.17233005 -0.2372483 0.08595414 -0.16398609
0003d0 2d cf 2b 3d fa 80 df 3d 53 8d ca bd d1 2c fa be
       0.041945625 0.10913272 -0.09890237 -0.48862317
0003e0 4a 1c 8d bd 79 b3 0a 3e 0a 2f e0 3d ca 28 0e be
       -0.06890161 0.13545026 0.10946472 -0.13882747
0003f0 26 f3 3a 3e 04 61 bc bd f9 3c 80 be 9c d7 51 be
       0.18256816 -0.09198192 -0.25046518 -0.20492405

layer3.0.bias f4 [64]
000000 87 e6 8c bc 2a 19 96 3d a3 1e 18 3e a8 7b fa ba
       -0.017199768 0.073290184 0.14855437 -0.0019110339
000010 06 88 14 3e 44 80 2f 3e 51 df 08 3d 26 fd c0 bd
       0.14505014 0.17138773 0.033416096 -0.09423284
000020 33 05 0a be de 05 ef bb 7c 0a 2f 3d cf 0f 95 be
       -0.13478546 -0.0072944006 0.042734608 -0.29113623
000030 99 8e aa ba fc b4 92 bd ce d0 0c 3b f8 be 90 3b
       -0.0013012468 -0.07163426 0.0021486762 0.0044172965
000040 8f be 2c bd 84 f9 38 bd 7d a6 92 bc 92 17 10 bb
       -0.04217392 -0.04515983 -0.017901653 -0.0021986705
000050 92 38 18 bb 97 84 b1 3c d5 61 bd bd 7e 23 1b 3a
       -0.0023227078 0.02166967 -0.092471756 0.00059180695
000060 39 e5 81 3b 2f c0 19 3d b7 73 f2 3b 13 97 41 bc
       0.003964093 0.037536796 0.007399048 -0.011815804
000070 82 8f 76 3c ac ce 0b be 6f 23 10 bc 24 92 dc 3b
       0.015048863 -0.13653058 -0.0087975105 0.0067312885
000080 af 13 2a 3e b0 61 f7 bc 1c fc 38 3d 8a 63 e6 bd
       0.16609071 -0.030197948 0.045162305 -0.11249454
000090 be bb e7 3b 29 e6 08 3c 4b c5 5c bc f2 c9 55 3b
       0.007071941 0.008355656 -0.013474773 0.003262159
0000a0 60 28 67 bc 1b 31 5c bd e7 1e b8 bc 05 2d 51 bd
       -0.014108747 -0.053757768 -0.022475673 -0.051068325
0000b0 bf 74 ac bc 6e 11 74 3d 51 f5 1f bc 02 ba 32 bc
       -0.021051763 0.059586935 -0.009763078 -0.0109086055
0000c0 d2 a4 10 3e c0 dd be bc 71 90 2e be 0f 80 1a 3d
       0.14125374 -0.023299098 -0.17047288 0.037719782
0000d0 ac 9d e4 bd 8c 50 7a bc b6 e8 bf 3c f7 17 18 be
       -0.11162886 -0.015277993 0.023426395 -0.14852892
0000e0 b9 0f 65 3c c1 e6 05 bc 6a 01 bd 3c 03 cb 5a bb
       0.013980799 -0.008172692 0.023071963 -0.0033385165
0000f0 69 2c 09 3c 0b c7 e1 ba 95 c1 29 be bc a7 06 3c
       0.008372405 -0.0017225457 -0.16577752 0.008218702

layer3.3.weight f4 [10, 64]
000000 e8 0e 8c 3e ff 75 d0 bd 60 1f f5 bd 61 fb 4e 3e
       0.27355123 -0.10178756 -0.11968875 0.20213081
000010 5c bf 05 bf 11 18 fa 3d 5c cd 2d 3e d1 a8 dd be
       -0.52245116 0.122116216 0.1697287 -0.4329286
000020 3f 9a e2 be 84 0d c9 3c bf bd 7b be 60 7c d5 be
       -0.44258305 0.024542578 -0.24584101 -0.41696453
000030 22 db 1c bd 33 96 0f bf 08 7a 60 3c a7 c3 d0 bd
       -0.03829492 -0.5608856 0.0137009695 -0.10193568
000040 ca 3e 8e 3d a6 4c 52 bd 39 0b 44 3d 4d c6 ea 3c
       0.0694557 -0.05134263 0.047862265 0.02865901
000050 66 30 1b 3d fe e9 92 3e bf 7e 1c 3e 12 9c 14 3c
       0.037887953 0.28694147 0.15282725 0.009070413
000060 2f 14 ce bd 91 b6 cc be 0e ac 3c bd 26 cb 18 bd
       -0.100624435 -0.39983037 -0.04606252 -0.037303112
000070 01 31 36 3e 5c 37 bd be b3 44 5a 3d 04 b7 b7 3d
       0.17792131 -0.36956298 0.053288173 0.08970454
000080 c7 bf 5f 3e 11 b4 cb be 2b e0 83 3e 82 8f c5 be
       0.21850501 -0.39785817 0.25756964 -0.3858605
000090 42 b1 38 bc b7 47 59 bc 50 4a 16 bd 1a 8e a8 3d
       -0.01127273 -0.013261727 -0.036691964 0.08230229
0000a0 22 91 94 3d 59 ac bb bd 4e 75 f9 3c 6f de 24 bf
       0.072542444 -0.09163732 0.030451443 -0.64401907
0000b0 d0 04 2d 3d b7 e8 a7 bc 03 a9 01 3e fc 7d 13 bd
       0.042240918 -0.02049671 0.12662129 -0.03600882
0000c0 7a 65 24 3e b9 96 25 3c 6b a9 8d be df 34 9d 3e
       0.16054335 0.010106736 -0.27668318 0.307044
0000d0 23 80 15 bf fe 6c f0 bd 3a 30 ac be b8 52 25 3e
       -0.58398646 -0.117395386 -0.33630544 0.16144836
0000e0 8a 81 1f be 8f c1 c9 3d 73 c1 ac bd 99 45 01 bf
       -0.15576759 0.098513715 -0.08435335 -0.5049682
0000f0 17 08 da 3d 79 d0 e9 bd 6a 28 8f be fc d2 bb bd
       0.10646074 -0.11416716 -0.2796052 -0.091711015
000100 8b 37 b8 3d b5 e1 23 3e 8f 9b 9a 3e 8a f9 1c bf
       0.08994969 0.16004069 0.30196807 -0.61318266
000110 f6 13 f5 3d 76 80 ea 3d 00 e1 c8 be 35 66 1c bf
       0.11966698 0.11450283 -0.3923416 -0.61093456
000120 b3 50 bb be dc 40 c3 bd 42 52 9a 3e d8 af 07 bf
       -0.36585006 -0.09533855 0.30140883 -0.5300269
000130 b6 e6 05 bc 4a 77 d8 3d 9d 40 88 3d 23 90 c2 3d
       -0.008172682 0.105696276 0.06652949 0.09500148
000140 31 56 b9 bb e4 52 d4 3d e3 ed 95 3d 1d a9 92 3d
       -0.005656027 0.10367373 0.07320764 0.07161162
000150 e8 dc d0 3c 7e 95 d9 be 59 be ac be 3a 50 f0 3d
       0.025495961 -0.42496866 -0.33738974 0.11734052
000160 0e 4b d2 bd 95 f4 83 3e a0 47 25 3d 30 68 e0 3d
       -0.10268222 0.2577254 0.04035151 0.10957372
000170 36 29 b7 be ff 3e 2e bf 95 5e fd bd 5d d8 04 3e
       -0.3577363 -0.68064874 -0.12371556 0.12973161
000180 5c fc 22 3e 2a fc 2d 3e 63 9b f2 3d dd 49 77 3d
       0.1591658 0.16990724 0.11846044 0.060373176
000190 dc df 42 3d c1 25 0d 3d 2e 99 ed 3d bd 74 3f 3d
       0.04757677 0.034459833 0.11601482 0.04674219
0001a0 d8 89 17 bd a3 9e 12 3e 05 d0 7a 3d 9d ca dc bd
       -0.036996692 0.14318328 0.06123354 -0.10780833
0001b0 27 2c 2a bd 1f a9 6d 3e 18 99 d6 bc 0c 34 c2 3d
       -0.041546013 0.23209046 -0.026196048 0.094825834
0001c0 f9 52 36 3e 35 64 9e bd 07 6a e5 be e4 cc 18 be
       0.17805089 -0.07733957 -0.44807455 -0.1492191
0001d0 67 a7 55 3c 6e 7f 48 bd 22 59 1f 3e f6 a7 db be
       0.0130404 -0.04894965 0.15561345 -0.42901582
0001e0 86 ad d0 bc d9 69 39 3d 78 39 22 3e 5a 81 84 3e
       -0.025473367 0.04526696 0.15842235 0.25879937
0001f0 29 15 a1 bd 20 36 30 3e 6e 4f a8 be a1 9c 09 3c
       -0.07865364 0.17208147 -0.328731 0.00839916
000200 84 32 bb be 1e 6f 0c bf ae e3 72 bd 1a 91 d8 be
       -0.36561978 -0.5485705 -0.059299164 -0.42298204
000210 ab 8e 6c 3e da 83 06 bf d5 e5 5b 3e 14 16 c7 be
       0.23101299 -0.5254494 0.21474393 -0.38884032
000220 06 0b b0 3d e1 a0 2d 3d ad 99 77 3e 99 72 ab bd
       0.085958526 0.042389754 0.24179716 -0.08371467
000230 97 2d 82 3c b7 94 9c be fe 7e c1 3d 7e 19 6e bd
       0.01589088 -0.3058221 0.0944805 -0.05812978
000240 d0 78 93 bc 17 84 06 bd 0f 28 5b 3d 53 71 74 bc
       -0.018001944 -0.032840814 0.053505 -0.014919597
000250 67 de ad bd 34 ca 83 3e ed d6 38 3e 39 2e 95 3d
       -0.084896855 0.25740206 0.18050738 0.07284207
000260 21 71 36 3e 69 8f 0c bf 48 11 a6 bd 8d 65 99 3d
       0.17816593 -0.54906327 -0.08108765 0.074900724
000270 cf 13 ee bd 4d 48 c9 bc 76 22 93 3c 0c 8a e6 3d
       -0.11624872 -0.024570609 0.017960768 0.11256799
000280 03 f1 8c 3e 00 62 4b 3e 09 3e 59 3e 46 30 c0 3e
       0.27527627 0.19861603 0.21215071 0.3753683
000290 f2 40 0a bc 1f 4a 03 be ba 84 d2 3d 21 73 a2 3d
       -0.008438336 -0.12821244 0.10279222 0.07932115
0002a0 42 46 db 3c f5 1c f0 bd 19 06 2b bd 03 46 0f 3e
       0.0267669 -0.11724273 -0.041753862 0.13991551
0002b0 a1 b8 27 3d fd 4d eb bd d3 43 d1 bd 03 33 80 bd
       0.04094756 -0.114894845 -0.102180146 -0.0625973
0002c0 01 47 c0 be f5 bb c3 bd 3c b0 67 be 7e 29 17 bf
       -0.37554172 -0.09557334 -0.22625822 -0.5904769
0002d0 eb 9d bf be 62 82 c6 3d 59 69 38 be 56 b4 cb be
       -0.3742517 0.09692837 -0.18008937 -0.39786023
0002e0 b2 fc 2e 3e 45 fe db 3d 23 fb 89 bc c4 27 ce be
       0.17088583 0.107418574 -0.016843384 -0.40264714
0002f0 bd 2e f1 3d d3 d8 10 3e 0f c1 07 bf 2b 09 dc 3d
       0.11776493 0.14145212 -0.5302896 0.10743936
000300 1b 1d 9f be 9b e5 10 bf 81 bf 02 be 2d c5 a2 be
       -0.31076893 -0.5660035 -0.12768365 -0.31791058
000310 70 b4 77 3e 8e fb e8 be d9 05 5f 3d 99 f4 86 3e
       0.24189925 -0.4550442 0.054448936 0.26358488
000320 5d c1 93 be 49 aa cb 3c 1a f3 09 be b9 8f b3 be
       -0.28858462 0.024861472 -0.13471642 -0.3507059
000330 61 4f d5 bd 34 3d da be 0f 09 46 bc 93 6c 8f 3d
       -0.10415531 -0.4262482 -0.012087121 0.07003131
000340 73 75 a9 3c 13 74 91 3d 07 f1 bc bc ec 06 1b 3c
       0.020685887 0.071022175 -0.02306415 0.0094620995
000350 6c b8 9e bd 2f 96 8f be 0c 1c 06 3e 32 93 5a bd
       -0.077500194 -0.28044268 0.13096637 -0.053363033
000360 ca 10 01 3e d4 d1 82 3e d2 6e 8d 3d ba 20 92 3d
       0.12604061 0.2555071 0.06905903 0.07135148
000370 76 ac ad be 7d b5 7a bd b7 b1 51 bd 7c a3 c5 3d
       -0.3392064 -0.061208237 -0.051194873 0.09650323
000380 13 87 bd be 57 24 41 3e ed 57 de be 9e 62 e4 bd
       -0.37017116 0.18861519 -0.43426457 -0.11151622
000390 46 ef d6 3d 49 a6 9e 3d 99 ee 91 bc 2b 03 1b 3d
       0.104948565 0.0774656 -0.017813968 0.037844818
0003a0 f4 8e 7d bd b6 5b de 3d ca 26 db bd 71 dd 4f 3e
       -0.06190391 0.10857336 -0.10700758 0.20299317
0003b0 17 85 c0 3d 65 ca e2 be 9a fd 17 3c e3 41 a0 3d
       0.09400385 -0.4429504 0.009276772 0.07825067
0003c0 92 b4 1a 3e a0 d8 90 3d c7 00 36 be 64 c0 99 be
       0.15107945 0.07072568 -0.17773734 -0.30029595
0003d0 8c 94 de be 13 b4 6e 3c 52 25 61 bd aa a1 93 3e
       -0.43472707 0.0145693 -0.054967232 0.28834277
0003e0 5a ea 9d 3e 42 4b 27 bd 8e c1 23 be 42 9c a6 3e
       0.3084286 -0.040843256 -0.15991804 0.3254109
0003f0 11 f1 5c bc d1 fd 03 bf bb af 96 bd 12 3f b0 bd
       -0.013485209 -0.5155917 -0.07357737 -0.0860578

layer3.3.bias f4 [10]
000000 ff 1c 7c bd fe 3d 8d 3e dd a2 46 3e fa 07 e0 bd
       -0.06155109 0.2758636 0.19398065 -0.109390214
000010 4c 95 00 bf 2c 5d 94 3e 26 40 77 be 50 2a 8c 3e
       -0.5022781 0.28977334 -0.24145564 0.27376032
000020 7e 54 b5 bd c8 07 14 be
       -0.08854006 -0.14456093

onnx::Conv_33 f4 [16, 1, 3, 3]
000000 76 5c 61 3d c1 0c 51 bf 66 a3 47 bf d3 63 f2 3e
       0.05501982 -0.81660086 -0.779837 0.47341785
000010 4c 54 12 3e 29 59 95 bf 09 05 50 3f c1 3d b9 3f
       0.14289969 -1.1667835 0.81257683 1.4471971
000020 50 7b 06 3f 16 75 e8 3f 53 24 3b 3f 03 d6 c1 bf
       0.5253191 1.8160732 0.731023 -1.5143436
000030 c0 8a 02 3f 83 c0 60 40 a8 f3 8c 3e 84 64 f1 bf
       0.50992966 3.51175 0.27529645 -1.88588
000040 bb 4a 0f 3f 8d f7 cc 3f f4 86 e0 3d 24 9e 04 3f
       0.55973405 1.6013047 0.1096324 0.51803803
000050 72 85 93 3f b3 0e ec be 31 59 e0 bf 12 7b 8a bf
       1.1525099 -0.46104965 -1.7527219 -1.0818808
000060 a8 9e a2 3f 3d 15 81 3f 86 17 45 3f ba b2 e1 be
       1.2704668 1.0084606 0.7698902 -0.4408167
000070 0d c2 50 bf 7f db 2c 3f c0 4f 5e bd 0b 38 81 bf
       -0.815461 0.67522424 -0.054275274 -1.0095228
000080 2d 95 c1 3f 92 b1 6f bf ce 93 cc bd 5a f5 b0 3f
       1.512365 -0.93630326 -0.09989129 1.3824875
000090 01 3e 96 3c ff 8b d9 be 5e 3c 24 be e0 18 f3 3e
       0.018340113 -0.4248962 -0.16038653 0.47479916
0000a0 b9 19 8f bf a8 39 a6 3d b3 22 c9 3f d7 9d d6 3f
       -1.1179725 0.08116466 1.5713714 1.6766919
0000b0 f1 85 a5 3f fe b4 b0 3e 7c 68 a9 bf 48 87 9a 3e
       1.2931501 0.34513086 -1.3235011 0.30181336
0000c0 7e a4 cb 3f db 02 68 bf 52 dd 00 bf 05 2a b1 3f
       1.5909574 -0.9062936 -0.5033771 1.3840948
0000d0 ea a2 4d 3b ac 78 55 bf b9 f7 82 bf c9 65 5d 3f
       0.0031377622 -0.83387256 -1.0231849 0.86483437
0000e0 71 17 36 3e c8 61 75 bf 35 42 27 3f c3 45 21 3f
       0.1778238 -0.9585233 0.653354 0.6299707
0000f0 6b 61 9d be 89 a5 8c bf 17 6b 7e bf e5 03 74 3e
       -0.30738387 -1.0988017 -0.99382156 0.2382961
000100 bb ae 16 bf 20 61 c8 3e 43 10 e1 3f 2b f3 04 40
       -0.5886037 0.391366 1.7583088 2.0773418
000110 b1 af 26 3f f1 0e b1 3f 09 56 a6 bf 85 a0 d8 bf
       0.65111834 1.3832685 -1.2995006 -1.6923987
000120 34 be b9 3e df 1c 01 40 d5 2f 83 3f 2a 26 9b bf
       0.36277926 2.0173872 1.0248972 -1.2121022
000130 3f cc 85 be 4b d4 47 bf 61 23 f2 be 90 38 2f bf
       -0.2613239 -0.7805831 -0.47292617 -0.6844568
000140 41 77 a4 bd a9 02 07 bf c9 d3 4c bf a1 89 00 bf
       -0.080305584 -0.52738434 -0.8001066 -0.50210005
000150 92 a2 37 3f 18 4d 8d 3e 5b 85 71 3f cf b7 46 3f
       0.7173244 0.2759788 0.9434411 0.7762422
000160 9b 89 2a 3f 3e eb 6d 3c ba 2d af bf 3d be 89 bf
       0.6661622 0.014521418 -1.368583 -1.0761181
000170 c3 99 04 40 de 47 28 bf 35 ad b3 3f e4 af a0 3f
       2.0718849 -0.6573466 1.4037234 1.2553678
000180 2f 48 c5 3f 74 ce b5 3f cf 41 d7 be b6 69 b8 3e
       1.5412654 1.420363 -0.42042395 0.3601815
000190 a7 dd f0 3e 7c 49 de 3f a0 fa a9 bf f1 60 33 40
       0.47044107 1.7366176 -1.327961 2.8027918
0001a0 a8 f8 e9 bf 5d 1f 9b be b9 63 0d 40 8e 99 6c bf
       -1.8279009 -0.30297366 2.2092116 -0.92421806
0001b0 19 02 cd 3f 2f ca b3 3f 8d ac 9a 3e 82 47 c9 bf
       1.6016265 1.4046077 0.3020977 -1.5724947
0001c0 ca 87 94 3d 23 f2 a0 3f c5 31 86 3f cb d5 8b bf
       0.07252462 1.2573894 1.0483938 -1.092462
0001d0 3d b9 3d 3e 7c c5 b6 3f df af 9d 3f c8 3f 5e bf
       0.18527694 1.4279017 1.2319297 -0.8681607
0001e0 a8 70 50 bf 93 20 eb bf 81 0b 79 bf 2e 7a 8b bf
       -0.814219 -1.8369316 -0.9728318 -1.0896661
0001f0 e2 3b a9 3f 9f 6c 87 3f f8 a4 84 be a8 fa 52 be
       1.32214 1.0580024 -0.2590711 -0.2060343
000200 d8 ee 17 be 8e 09 72 be b4 c1 78 bc c6 1b 0d be
       -0.14837205 -0.23636457 -0.015182901 -0.13780126
000210 10 aa e9 be 06 f7 91 be d3 d4 f4 bd 10 07 13 c0
       -0.4563756 -0.28508776 -0.119546555 -2.297306
000220 1f 88 e9 3e 8a 45 53 3e 87 2d 8a 3e b0 b5 59 3f
       0.45611665 0.20631996 0.2698786 0.8504286
000230 7f 35 8a 3f bf cc 12 3f 2c 99 18 3f e0 79 2d c0
       1.0797576 0.5734367 0.5960872 -2.7105637

onnx::Conv_34 f4 [16]
000000 42 4d 56 bf fb 54 a0 c0 5c a8 ba bf 22 cd c5 be
       -0.83711636 -5.0103736 -1.4582629 -0.38633066
000010 0d a6 3d c0 57 28 0b bf b2 1f 47 3f 67 0e 29 c0
       -2.96326 -0.5435843 0.7778274 -2.641504
000020 76 e9 93 bd 5d b4 c0 bf 84 fd 72 c0 5d ea 3a c0
       -0.072222635 -1.5055043 -3.7967234 -2.9205544
000030 7a 62 31 c0 04 93 36 be 6c 2d 4a 3f 90 10 0b bd
       -2.7716355 -0.1782952 0.7897556 -0.033951342

onnx::Conv_36 f4 [64, 16, 3, 3]
000000 f9 80 80 3e da 34 2a bd af bf 57 3d a3 2a 72 3d
       0.25098398 -0.04155431 0.052673038 0.059122693
000010 fc d2 b3 bd 64 93 d2 bc 64 58 d6 be f9 6a 7a be
       -0.087804765 -0.025705047 -0.41864312 -0.2445487
000020 83 a7 29 bc 75 88 06 3e 01 3b 76 3e 96 d9 07 bd
       -0.010354879 0.13137992 0.24045946 -0.03316649
000030 8a fd 08 3b 2c a6 07 be 02 d0 4c be d8 a9 96 be
       0.0020903074 -0.13246983 -0.20001224 -0.29426455
000040 37 8c 81 be 43 0e e6 bd 62 08 4f 3e f4 16 11 3e
       -0.25302288 -0.11233189 0.20218042 0.14168912
000050 85 bc a7 bd 26 e7 f7 3c 61 71 bb bc 30 dc 55 be
       -0.08190254 0.030261587 -0.022881212 -0.20884776
000060 61 1a 40 be 52 32 17 bd 24 45 39 3d fe ce 1e be
       -0.18760063 -0.036913224 0.045231953 -0.15508649
000070 c3 a6 3c be bc 1a c0 be ac 6e 96 be 91 e4 38 be
       -0.1842299 -0.37520397 -0.2938131 -0.18055941
000080 9d e1 1a bd 65 af b2 bd be 43 00 be c5 6a 44 3e
       -0.037812818 -0.0872486 -0.12525842 0.19181354
000090 bc cf e6 3d 62 f0 83 bb 80 84 a6 be 02 ec 0d 3e
       0.11270091 -0.0040264586 -0.32522964 0.13859561
0000a0 70 c6 97 bd eb 9d 8d be 42 21 85 bd 56 27 70 3d
       -0.07410896 -0.27659544 -0.06500484 0.058631264
0000b0 d2 23 21 3d 26 93 1f 3d 20 7a dc bd ab 49 33 3e
       0.0393408 0.03895869 -0.10765481 0.17508571
0000c0 7b 09 a2 3d ba 6d e8 3d aa d7 17 3e 4e 39 01 be
       0.079119645 0.11349054 0.14828363 -0.12619516
0000d0 0d 36 6d be 48 ad d9 bc 05 3a 96 3e 85 96 b5 3d
       -0.2316515 -0.026571885 0.2934114 0.088666
0000e0 9f 58 cd 38 0a 09 6e 3e 01 f3 5f 3d 35 f3 b1 bd
       9.791669e-05 0.23245636 0.054675106 -0.08688966
0000f0 e8 22 3c bd ba 2a a5 bc 5d 0b 29 bb 31 1b 65 be
       -0.045931727 -0.020161975 -0.0025794127 -0.22373654
000100 06 e4 4c be 13 a1 1f 3d 93 9e 2b be 01 41 ab 3c
       -0.20008859 0.03897197 -0.1675971 0.02090502
000110 cf da ba 3d a1 1d 4d 3e 54 4c 2c 3e a9 b4 2d 3d
       0.09123766 0.20030834 0.16825992 0.04240862
000120 50 4f 37 3e ef 42 f1 3d ac 5a 11 3d 2e c5 01 3d
       0.17901349 0.11780345 0.035486862 0.031682186
000130 f6 86 8e bd 97 aa ef bd 9b 3a 03 3e 3e 0c d2 bd
       -0.069593355 -0.11702459 0.12815325 -0.10256241
000140 ef ca 61 be 22 9e 8e 3d 71 c1 81 bc b3 c8 e3 bd
       -0.2205007 0.06963755 -0.01583931 -0.11122265
000150 fe c3 3a 3d 16 a7 70 bd a3 8e 08 be a3 0f fa 3c
       0.04559707 -0.058753096 -0.13335662 0.030525034
000160 15 72 57 bd 8d c1 99 3c 95 90 43 be 41 56 07 be
       -0.05259903 0.01876905 -0.19098122 -0.13216497
000170 f5 b8 77 be 47 f3 77 be 1e 89 f0 bc d3 33 57 be
       -0.2419165 -0.24213897 -0.029362258 -0.21015863
000180 0d a2 b7 3d 41 45 09 3e 47 c7 c4 3d a0 41 87 3e
       0.089664556 0.13405325 0.09608322 0.26417255
000190 2e 99 65 bd 7d a3 f6 3d d7 7c 06 bd 90 9c 45 bd
       -0.056054287 0.12042902 -0.0328339 -0.048245013
0001a0 be f5 c9 bd d6 66 17 3d 12 0a 25 3e d4 00 8a bc
       -0.09861325 0.036963306 0.16117123 -0.016846098
0001b0 82 0d c1 bd 3c 35 ac 3d 26 07 42 3c c7 0c 47 bc
       -0.094264045 0.08408591 0.011842525 -0.012149042
0001c0 d9 8b 3f 3d c6 b3 74 bd 67 b4 6d 3d e8 cb 1a bd
       0.04676423 -0.059741758 0.058033373 -0.037792116
0001d0 94 14 c9 be 6d 80 1f be c1 41 75 be 19 4e f0 bc
       -0.39273512 -0.15576334 -0.23950864 -0.029334115
0001e0 a8 9d 1e be a8 f1 64 be 2f 37 38 3e ce 6a e2 39
       -0.15489829 -0.2235781 0.17989801 0.00043185655
0001f0 1f b4 14 3d 35 da d8 3d 4c 80 5c bb 22 35 a1 bd
       0.03630459 0.10588495 -0.0033645807 -0.078714624
000200 0f 33 f3 3c 48 7f 8a bd d2 02 6f 3d f5 aa 7e 3e
       0.029687433 -0.06762558 0.0583523 0.24869902
000210 84 3a 07 3d 4b 81 e3 3d 32 43 2f 3e b3 73 7c 3b
       0.03301479 0.11108645 0.17115477 0.003852111
000220 88 d2 a7 bd 61 d3 56 3b 0d 21 d4 bd c8 86 79 bc
       -0.081944525 0.00327798 -0.103578664 -0.015229888
000230 0a d8 d8 bd b6 a5 77 bc 6d 3c 88 bd b3 7c 7e be
       -0.10588081 -0.015115192 -0.0665215 -0.24852256
000240 f7 45 24 3e 5b 7c 0a 3e 9a ac a7 3c 9a f9 46 bd
       0.16042314 0.13524 0.020468045 -0.048577882
000250 c9 b6 25 bd 60 6d 72 3b 84 63 2b 3d 7f fa 76 bd
       -0.04045752 0.0036991462 0.041842952 -0.060297485
000260 92 5b 9e bd c5 2c 2b bd 1e ea f9 bd 54 53 35 3e
       -0.077323094 -0.041790742 -0.122028574 0.17707568
000270 39 de 47 3c 21 39 18 be ec 62 08 bb 64 10 52 bd
       0.012198978 -0.14865543 -0.0020810915 -0.051285163
000280 9d c2 5b be d4 e3 30 be cb ad 29 3e 31 a2 27 3e
       -0.21460958 -0.1727441 0.16570203 0.16370465
000290 a5 7c 0d 3d eb 9a 56 3d 0c 74 c9 bc 59 ee 46 bd
       0.0345427 0.052393835 -0.024591468 -0.04856715
0002a0 d9 a0 6d 3e 98 bd b3 3d ce a5 63 bd cb a7 dc 3d
       0.2320589 0.087763965 -0.055578046 0.107741915
0002b0 a6 9d be 3c 8e 47 0e 3e e4 74 2b 3d 0c fa cb 3d
       0.023268532 0.13894483 0.041859522 0.09959802
0002c0 4b 3f 30 3e 96 0d 2f bd 6e 0e 45 3d 4e 88 a8 3d
       0.17211644 -0.042737566 0.048109464 0.08229123
0002d0 6a e2 17 3e 63 eb 3f be fe b2 15 be 33 e6 1b 3d
       0.14832464 -0.18742137 -0.14619061 0.038061332
0002e0 6f 2e 90 be 31 fb 7e be 04 78 14 3e 15 7d 8c 3c
       -0.28160426 -0.2490051 0.14498907 0.017149488
0002f0 5d 1f f6 bd 44 ac 3a 3c f5 91 9e 3d fe de eb 3d
       -0.12017701 0.01139361 0.07742683 0.11517142
000300 4e 80 d3 bd 89 af ec 3d c3 c4 08 3d ae eb 92 bd
       -0.103272066 0.11556918 0.03339077 -0.071738586
000310 83 3a ef bc 71 3e 27 be 2a 28 3d be c3 ea 00 bd
       -0.029202705 -0.16332413 -0.18472353 -0.031473886
000320 78 ba 41 3d 0b 3b 41 3d a6 e1 11 be a2 43 3a 3e
       0.04729697 0.04717545 -0.14246234 0.18189862
000330 02 77 ee 3c 63 dd 2e be 7a b3 bb 3d 30 88 3e be
       0.029109482 -0.1707664 0.09165092 -0.18606639
000340 14 b9 87 3d 75 a7 e7 3c 04 6d b9 3d e5 75 ea 3d
       0.06627098 0.028278092 0.09053996 0.11448268
000350 43 f2 f3 bc 79 9f c4 3d ef f7 e9 3d 9d a5 b2 bc
       -0.029778605 0.096007295 0.11424243 -0.021807486
000360 a2 28 08 be fb 31 90 bd 29 e4 16 3e 94 54 3c 3e
       -0.1329675 -0.07040783 0.14735474 0.18391639
000370 b0 ae af bd dc a8 72 3d 3a 3e 35 3e 7e 2f 82 bd
       -0.08578241 0.059243068 0.17699519 -0.06356715
000380 eb c0 c3 bc b8 98 b3 3d 9d ce 71 39 1b 70 61 bd
       -0.023895701 0.08769363 0.0002306052 -0.055038553
000390 b9 6d 61 3e bb 28 02 bd b9 26 82 bd 38 1b d5 3d
       0.22014512 -0.031777125 -0.06355042 0.10405582
0003a0 ec 97 d2 3c 75 64 c2 bd f4 ef 8c 3d a2 6b c1 bd
       0.025707208 -0.09491817 0.06881705 -0.094443575
0003b0 04 d6 f0 bd e2 c9 c1 3d 80 35 58 3d c4 96 30 bb
       -0.1175957 0.09462334 0.052785397 -0.0026945332
0003c0 52 d1 06 be 18 3e 1c 3d 8f 55 02 3d 99 a8 72 be
       -0.13165787 0.038145155 0.031819876 -0.23697127
0003d0 d1 6d f7 bd 6a 0d 81 3e 1a 82 c1 bc 2a cf 27 3e
       -0.12081493 0.25205547 -0.023621608 0.1638762
0003e0 20 8c 40 3e 5b 54 22 3d e4 00 04 3e 05 43 82 bd
       0.18803453 0.03963123 0.12890965 -0.06360439
0003f0 be 4b 20 be 4a e0 68 bc 7d 8c 49 3e 5c 83 b4 bd
       -0.15653893 -0.014213631 0.19682498 -0.08814117

onnx::Conv_37 f4 [64]
000000 54 a8 a5 3e 7d e0 83 bf 18 c8 a2 bf c0 bf 81 3d
       0.32354987 -1.0302883 -1.2717314 0.063354015
000010 d8 8e 01 3e e4 55 0e bf d1 3e 82 bf 80 88 f5 3c
       0.12652147 -0.5559981 -1.017542 0.029972315
000020 36 73 9b be da fa 36 bf 8b b4 81 bf b1 fe 3b bf
       -0.30361336 -0.7147652 -1.0133222 -0.73435503
000030 c3 27 4a bf d8 08 08 3e 44 f9 22 bf 23 b2 12 3f
       -0.7896692 0.13284624 -0.636616 0.57303065
000040 78 63 88 bf 2a 74 e6 3e 40 5b 60 bd a7 6e 5c bf
       -1.0655355 0.450105 -0.054774523 -0.8610634
000050 37 11 18 bf 06 b0 65 bf fc 14 c4 3e 32 12 fe bf
       -0.5940127 -0.89721715 0.3829726 -1.9849303
000060 00 31 0e bc af 98 3a bf b0 f9 01 c0 9c 2c b7 be
       -0.008678675 -0.72889227 -2.0308647 -0.35776222
000070 d6 71 3f 3f 0f 4e 63 bf 80 57 97 3e e1 fc 94 bf
       0.74783075 -0.8879098 0.29558945 -1.1639673
000080 78 95 21 3e 48 4f 49 bf 24 2a b0 3e 1c 03 1f bf
       0.15779674 -0.786366 0.3440715 -0.6211412
000090 70 4a 79 3f ac 08 84 bf 9c d7 08 3e 8c 8b 7b be
       0.9737921 -1.0315146 0.13363498 -0.24564952
0000a0 8c 34 d7 3e d9 6b a8 bf 78 ed 7c 3e 18 f7 3d be
       0.42032278 -1.3157912 0.24699962 -0.1855129
0000b0 d0 e6 7f bf f8 e0 4e 3e 00 eb 92 bb 12 e6 5d bf
       -0.99961567 0.20203006 -0.0044835806 -0.86679184
0000c0 40 8c 10 3f bf 96 89 3f b8 05 52 bf 30 2a 17 bf
       0.56464005 1.0749129 -0.82039976 -0.5904875
0000d0 74 c6 83 be 20 cc b9 be c6 cc 98 bf 26 c0 20 bf
       -0.25737345 -0.36288548 -1.1937492 -0.62793195
0000e0 70 76 4b be 2d 84 3f bf 64 7d 11 c0 80 db 33 bf
       -0.19869399 -0.7481106 -2.2732782 -0.70256805
0000f0 36 df c9 bf 4b c2 07 3f bd f2 91 bf 78 85 77 3e
       -1.5771244 0.5303084 -1.1402203 0.24172008
